assets/potatoes.tflite (tflite, 741824 bytes, 16 tensors)

sequential_2/conv2d/Relu;sequential_2/conv2d/BiasAdd;sequential_2/conv2d/Conv2D;sequential_2/conv2d/BiasAdd/ReadVariableOp f4 [32, 3, 3, 3]
0.0002317539 0.00026555939 0.00032553863 -1.4537418e-05 -0.00015585475 0.00034784636 -0.00013199417 5.57644e-05
0.00041411517 -0.00043324407 -2.429756e-05 2.6410804e-05 -0.0005796543 0.0003240879 0.00024646922 0.0003757551
-0.0002132767 -0.0001297615 0.00013556833 0.00024141092 0.00051930064 0.00036982194 0.00027431562 -0.00015479227
-0.0004941613 0.00016257942 -0.0005996697 0.00013955246 -0.00017981177 -0.00014435317 -0.00056700053 0.00042658337
0.0003406624 -0.00047331952 -0.00039429773 1.42414865e-05 0.0001625082 -0.00034441796 -0.00038758083 -0.0005097553
-0.0005740433 0.0003377043 -0.00062069023 0.00038324358 -0.0005803266 -0.00025954662 7.0183225e-05 -0.00031019025
-0.000284123 -0.00037886287 0.00022885698 -0.0002889312 -0.00014571343 -6.241644e-06 -0.00046012123 0.00028463526
-7.594654e-06 0.00025093768 0.00034613837 -0.00024811854 7.581182e-05 1.9005605e-05 -0.00013886816 -0.00043860657
-1.1018207e-05 -0.00041389253 -0.00040610816 0.000496412 -0.00018988231 -0.00030738767 0.0006494341 9.185799e-05
0.0002766203 0.00085015764 -0.00015375795 3.829871e-06 8.954804e-06 -0.00021453017 -0.00041114428 0.00068549375
-0.00047172327 5.9003283e-05 6.7195455e-05 -0.00032864048 0.00021245804 0.000502153 0.0003485913 -0.00062071695
0.0003160318 -0.00030908178 -0.0001942379 0.00029029537 -0.0005367074 -0.00032602018 0.00042007267 0.0002000764
-6.319875e-05 0.000566439 -0.0006365239 -0.00025039088 0.0004799765 0.0003883043 -0.0004390947 -0.00018222872
-0.00026363065 0.0003852985 -0.00025698132 0.00026970127 0.00044907522 -0.0005419601 -0.00050293416 -7.989444e-06
0.0004678391 -4.753617e-05 -0.00034648922 -0.00021835287 -0.00031853252 -0.000112753194 -4.9302595e-05 -0.0002964888
-0.00012256438 0.00030995123 -0.00014832872 5.524926e-05 0.00050633115 -0.0004986916 0.00052142405 0.00043026995
0.0005101229 -0.0002182609 -0.00055987726 0.00040088443 0.0005260896 1.5687034e-05 -0.00057684927 1.3744286e-06
-0.00032514773 -0.00039961468 -9.969731e-05 -0.00015082014 -7.878387e-05 0.00040200393 -0.00015467641 -0.00035610795
0.0003595872 -0.00010898504 -0.00025890034 0.00026664863 -9.609899e-05 -0.0004531781 8.1359656e-05 -0.0003834925
-0.00017108311 -0.0001246763 0.0002742869 0.0003880886 -0.00010207679 0.00040988225 -0.0004434389 0.0003577614
-0.00019640285 -0.00033468995 0.00024079281 -0.0003616201 2.821657e-05 -0.00013527181 -0.00052228465 -6.85503e-05
0.00020246948 -0.0002849931 5.0766914e-05 -0.0002437929 0.00024215561 5.1874107e-05 0.00016908349 7.801738e-06
-0.00055282196 -2.0836069e-05 -0.0005694211 -0.00017418734 -5.6972804e-06 -6.1104394e-05 -5.050249e-05 -0.00013189652
-0.0002997924 2.6650634e-05 -0.00042424665 0.00029406813 -3.381588e-06 0.00015177244 -0.00044089428 0.00014334994
-7.802955e-05 -0.0002810166 0.00037725634 2.151612e-05 -5.143667e-05 -6.77828e-05 -0.00041967924 0.00031618003
-0.00054608006 0.00010017939 0.0002451355 0.00032387214 -0.0005800472 -0.00018883929 -3.61407e-05 4.2507017e-06
-0.0003279681 0.0004656445 0.00015284006 -0.00051735 -0.00020180858 0.00014176534 -0.00010440886 0.0005371668
-0.0007755559 -0.0006878345 -0.00046286188 -3.5832472e-05 -0.00039486785 -0.0005631976 -0.00013060388 -8.517748e-05
0.00033127877 0.00027119135 -0.00035980734 0.00029189882 0.00030700638 -0.00050739496 0.0003486672 -0.00046799242
0.00028751564 0.00030393366 1.5271688e-05 -0.0003954221 0.00039654505 -0.00035280673 0.00041999135 0.00046317934
-0.00017765068 0.00028897135 0.00043800139 0.0002590638 -0.0005071532 0.0004287037 0.00012552089 -0.00019852206
-0.00031611646 0.00060217583 0.00010048505 0.00024386327 0.00062895287 -0.0005240908 -0.0004748361 0.00010552761
00000000: f702 7339 c73a 8b39 0ead aa39 bce5 73b7
00000010: f16c 23b9 265f b639 ea67 0ab9 92e4 6938
00000020: 991d d939 0925 e3b9 9dd2 cbb7 c58c dd37
00000030: f1f3 17ba 57ea a939 8a38 8139 ff00 c539
00000040: 07a3 5fb9 9610 08b9 5927 0e39 4023 7d39
00000050: ad21 083a a9e4 c139 05d2 8f39 bc4f 22b9
00000060: 9a8a 01ba 157a 2a39 2733 1dba d454 1239
00000070: db8b 3cb9 825d 17b9 c3a2 14ba 0da7 df39
00000080: ef9a b239 df27 f8b9 bfb9 ceb9 b8ee 6e37
00000090: f666 2a39 ff92 b4b9 3834 cbb9 19a1 05ba
000000a0: 657b 16ba e70d b139 d1b5 22ba 15ee c839
000000b0: 0f21 18ba c213 88b9 552f 9338 08a1 a2b9
000000c0: 58f6 94b9 1da2 c6b9 54f9 6f39 b07b 97b9
000000d0: a7ca 18b9 506f d1b6 6d3c f1b9 193b 9539
000000e0: 95d5 feb6 4990 8339 e879 b539 e815 82b9
000000f0: 29fd 9e38 3a6e 9f37 239d 11b9 c7f4 e5b9
00000100: d7da 38b7 b7ff d8b9 eaea d4b9 a521 023a
00000110: 251b 47b9 e028 a1b9 c93e 2a3a e2a3 c038
00000120: 5907 9139 1ddd 5e3a 163a 21b9 5782 8036
00000130: 973c 1637 81f3 60b9 da8e d7b9 b5b2 333a
00000140: a051 f7b9 4b7a 7738 49eb 8c38 614d acb9
00000150: 45c7 5e39 eba2 033a 22c3 b639 9cb7 22ba
00000160: 12b1 a539 410c a2b9 57ac 4bb9 c932 9839
00000170: d3b1 0cba b0ed aab9 333d dc39 9acb 5139
00000180: 9289 84b8 147d 143a 65dc 26ba e546 83b9
00000190: 5ba5 fb39 5295 cb39 4b36 e6b9 a614 3fb9
000001a0: e837 8ab9 e401 ca39 73bb 86b9 b166 8d39
000001b0: db71 eb39 5412 0eba 57d7 03ba 670a 06b7
000001c0: 4d48 f539 9361 47b8 ffa8 b5b9 a7f5 64b9
000001d0: b600 a7b9 e975 ecb8 42ca 4eb8 0e72 9bb9
000001e0: a084 00b9 f380 a239 b088 1bb9 71bb 6738
000001f0: 4fbb 043a a0ba 02ba 2db0 083a db95 e139
00000200: c5b9 053a f7dc 64b9 bac4 12ba cc2d d239
00000210: 47e9 093a a697 8337 b337 17ba 0279 b835
00000220: 9778 aab9 6083 d1b9 9614 d1b8 7925 1eb9
00000230: c538 a5b8 0ec4 d239 a230 22b9 00b4 bab9
00000240: fa86 bc39 e68e e4b8 04bd 87b9 f9cc 8b39
00000250: c188 c9b8 8998 edb9 a29f aa38 7e0f c9b9
00000260: c664 33b9 8abb 02b9 2ace 8f39 5f78 cb39
00000270: 0f12 d6b8 77e5 d639 5d7d e8b9 ec91 bb39
00000280: 7df1 4db9 5379 afb9 547d 7c39 d497 bdb9
00000290: 9fb2 ec37 c0d7 0db9 eee9 08ba a9c2 8fb8
000002a0: fd4d 5439 206b 95b9 8fee 5438 a9a2 7fb9
000002b0: 27eb 7d39 6693 5938 014c 3139 36e4 0237
000002c0: 41eb 10ba 1ec9 aeb7 3445 15ba 0fa6 36b9
000002d0: 442b bfb6 2c25 80b8 a3d2 53b8 b44d 0ab9
000002e0: 742d 9db9 cd8f df37 6c6d deb9 282d 9a39
000002f0: 3def 62b6 1b25 1f39 d427 e7b9 3550 1639
00000300: cca3 a3b8 6955 93b9 7dca c539 847d b437
00000310: b4bd 57b8 9d26 8eb8 6508 dcb9 f7c4 a539
00000320: d026 0fba 6717 d238 8885 8039 62cd a939
00000330: 4f0e 18ba 2903 46b9 c895 17b8 40a1 8e36
00000340: 22f3 abb9 bf21 f439 b143 2039 c59e 07ba
00000350: 949c 53b9 d8a6 1439 14f6 dab8 a7d0 0c3a
00000360: ad4e 4bba cb4f 34ba 45ac f2b9 d34a 16b8
00000370: 4406 cfb9 8da3 13ba b6f2 08b9 50a1 b2b8
00000380: 7caf ad39 b02e 8e39 86a4 bcb9 ff09 9939
00000390: b3f5 a039 b302 05ba 52cd b639 e15c f5b9
000003a0: b2bd 9639 4959 9f39 b31b 8037 a850 cfb9
000003b0: 60e7 cf39 ebf8 b8b9 4932 dc39 e1d6 f239
000003c0: be47 3ab9 1481 9739 8da3 e539 f4d2 8739
000003d0: 7af2 04ba a3c3 e039 429e 0339 5c2a 50b9
000003e0: 6fbc a5b9 56db 1d3a 80bb d238 8cb5 7f39
000003f0: 50e0 243a 2363 09ba 6cf3 f8b9 b44e dd38

sequential_2/conv2d/BiasAdd/ReadVariableOp f4 [32]
-0.13001135 -0.032893393 -0.057100534 -0.053749938 -0.066865824 0.069085024 -0.015498033 -0.0016441471
-0.03530146 -0.005037968 -0.012490128 -0.1150999 -0.098964214 -0.016888026 -0.1106747 -0.08333576
-0.022201631 -0.05633647 -0.07045993 -0.049284007 0.00069851574 0.05716576 -0.002447656 -0.0081124585
-0.011789086 -0.06687985 -0.04358665 -0.10269484 -0.06504288 -0.10880349 0.059908196 -0.011954062
00000000: b221 05be 39bb 06bd 40e2 69bd e528 5cbd
00000010: f3f0 88bd 737c 8d3d 76eb 7dbc 6c80 d7ba
00000020: 4498 10bd 8a15 a5bb 65a3 4cbc 7fb9 ebbd
00000030: c0ad cabd c258 8abc 6ba9 e2bd f0ab aabd
00000040: 32e0 b5bc 12c1 66bd 4c4d 90bd 07de 49bd
00000050: 991c 373a a526 6a3d da68 20bb 1eea 04bc
00000060: 0327 41bc 4ef8 88bd ea87 32bd ac51 d2bd
00000070: 3435 85bd 5dd4 debd 4c62 753d f8da 43bc

sequential_2/conv2d_1/BiasAdd/ReadVariableOp f4 [64]
-0.027253916 -0.022818888 0.07039725 -0.011218911 0.00961378 -0.0128787 0.02732276 -0.071518496
-0.043226063 -0.03550202 -0.0058691367 0.030165993 0.04603793 -0.034245223 -0.020025395 0.0023131375
0.00016467439 -0.07782888 -0.053900275 -0.04861021 -0.08125509 -0.03200864 -0.025892394 0.015389393
0.020476991 0.07808947 -0.017479789 -0.08093017 -0.076166496 0.019305825 0.06973465 -0.01937627
0.07114673 0.039621368 -0.009833898 -0.026461078 -0.021378215 -0.026405275 -0.08578697 -0.033719454
-0.016090412 0.010165063 0.041034862 -0.019130692 0.04433316 0.05430968 -0.07109153 -0.028624764
0.0014641581 0.08861218 0.015581278 -0.03937106 -0.02632326 -0.053538002 0.015181499 -0.0108673815
-0.050150555 -0.019108728 -0.0035595407 -0.021019133 -0.056382377 0.0013799095 -0.050109938 -0.044617392
00000000: 9b43 dfbc adee babc 6f2c 903d 86cf 37bc
00000010: 1e83 1d3c 2f01 53bc fbd3 df3c 4a78 92bd
00000020: d00d 31bd 916a 11bd e351 c0bb ac1e f73c
00000030: 4592 3c3d b844 0cbd 4c0c a4bc 0298 173b
00000040: 72ac 2c39 bf64 9fbd 89c6 5cbd 801b 47bd
00000050: 1269 a6bd 7e1b 03bd 491c d4bc cb23 7c3c
00000060: 5dbf a73c 5fed 9f3d c631 8fbc b8be a5bd
00000070: 2efd 9bbd 4027 9e3c 0ad1 8e3d fcba 9ebc
00000080: 60b5 913d 044a 223d 5c1e 21bc e7c4 d8bc
00000090: 5e21 afbc e04f d8bc 14b1 afbd 691d 0abd
000000a0: 0ad0 83bc 5d8b 263c 2c14 283d f8b7 9cbc
000000b0: b096 353d d473 5e3d 7098 91bd 7b7e eabc
000000c0: fee8 bf3a 4d7a b53d 9e48 7f3c 8c43 21bd
000000d0: e1a3 d7bc aa4a 5bbd d2bb 783c 1a0d 32bc
000000e0: ab6a 4dbd e889 9cbc 2f47 69bb 5130 acbc
000000f0: 35f1 66bd 14de b43a 1440 4dbd bac0 36bd

sequential_2/conv2d_2/BiasAdd/ReadVariableOp f4 [64]
-0.02124674 -0.022082953 -0.04356115 -0.022572275 -0.04933705 0.065792724 -0.008507377 0.02768254
-0.03396304 -0.015020875 -0.010282116 -0.01567473 -0.046897165 -0.027875302 0.066513136 -0.025542764
-0.06613575 -0.023006096 -0.010466812 -0.019335238 -0.017226787 0.05894796 -0.009966071 -0.001744806
-0.031227928 -0.035672218 -0.06919031 -0.017316518 -0.0069368295 0.0047946726 -0.033611894 0.023213338
0.05243974 -0.010719056 -0.0131829865 -0.016684482 0.0074416427 -0.01967477 0.104671426 0.07471213
-0.032816146 0.0505291 0.0063842153 -0.02786336 -0.026300427 -0.021601448 0.0012003087 -0.07390538
-0.018976318 0.023588365 -0.020520214 -0.017886072 -0.04091598 0.04353607 -0.049828045 -0.010232642
-0.039453827 -0.026919033 -0.017922575 -0.022787895 -0.03647774 -0.004636645 -0.038564343 -0.0088628875
00000000: a50d aebc 4fe7 b4bc 2d6d 32bd 7ee9 b8bc
00000010: a615 4abd 56be 863d 8662 0bbc 7ec6 e23c
00000020: d41c 0bbd 1e1a 76bc 5276 28bc 4b68 80bc
00000030: 3e17 40bd bf5a e4bc 0a38 883d 0f3f d1bc
00000040: 2e72 87bd 4877 bcbc fe7c 2bbc ef64 9ebc
00000050: 311f 8dbc 6b73 713d bb48 23bc f9b1 e4ba
00000060: b6d1 ffbc 081d 12bd a6b3 8dbd 5fdb 8dbc
00000070: 584e e3bb a11c 9d3b a0ac 09bd e629 be3c
00000080: 0ecb 563d fb9e 2fbc 74fd 57bc e5ad 88bc
00000090: 06d9 f33b fc2c a1bc f95d d63d ac02 993d
000000a0: 396a 06bd 9af7 4e3d ae32 d13b b341 e4bc
000000b0: fe73 d7bc 85f5 b0bc ad53 9d3a b45b 97bd
000000c0: 3974 9bbc 633c c13c 021a a8bc d085 92bc
000000d0: 8497 27bd e152 323d 7e18 4cbd d0a6 27bc
000000e0: 569a 21bd 4e85 dcbc 5dd2 92bc aead babc
000000f0: af69 15bd ffee 97bb a5f5 1dbd a535 11bc

sequential_2/conv2d_3/BiasAdd/ReadVariableOp f4 [64]
-0.03778627 0.06373243 -0.018526867 0.013119926 0.00049090496 -0.033568483 0.010011926 -0.01866752
0.033128884 -0.020715576 -0.011624332 -0.015101877 0.025688035 0.017142015 -0.060501147 -0.027371185
-0.02881189 -0.015913423 -0.051055506 0.05960918 0.030639092 -0.011302209 -0.0061525293 -0.021207616
0.03971852 0.039287116 -0.04106764 0.022460295 -0.015106989 -0.0066191545 -0.00016372508 0.09298843
-0.0033380955 -0.019627945 0.032567285 0.022590958 -0.0064464803 0.014977954 -0.019239321 -0.023780283
0.06363278 0.0751814 0.022765994 -0.026009755 -0.028471868 0.017258191 -0.067021444 0.011352418
-0.022927364 -0.08431595 0.06524626 0.047565088 0.022040468 0.0184142 -0.032539904 0.011389417
-0.010282624 -0.05749266 -0.03774676 -0.029537018 -0.09357552 0.045815784 -0.0125734 0.016577912
00000000: c7c5 1abd 2686 823d a8c5 97bc f5f4 563c
00000010: 13b0 003a 1b7f 09bd 1009 243c a0ec 98bc
00000020: 27b2 073d b6b3 a9bc fb73 3ebc dd6d 77bc
00000030: b76f d23c 696d 8c3c 0dd0 77bd 8939 e0bc
00000040: ea06 ecbc de5c 82bc 941f 51bd c128 743d
00000050: d5fe fa3c e72c 39bc 289b c9bb 98bb adbc
00000060: e3af 223d 87eb 203d 8b36 28bd a7fe b73c
00000070: 4e83 77bc 7ee5 d8bb 9ead 2bb9 b870 be3d
00000080: f3c3 5abb c9ca a0bc 4665 053d ac10 b93c
00000090: ff3c d3bb 1866 753c c89b 9dbc dece c2bc
000000a0: e751 823d b5f8 993d c07f ba3c 6912 d5bc
000000b0: d63d e9bc 0d61 8d3c 8a42 89bd 7eff 393c
000000c0: 2bd2 bbbc d7ad acbd d59f 853d 9cd3 423d
000000d0: 368e b43c 60d9 963c 9048 05bd ad9a 3a3c
000000e0: 7378 28bc 6c7d 6bbd 599c 1abd 9ef7 f1bc
000000f0: 86a4 bfbd 55a9 3b3d a900 4ebc 67ce 873c

sequential_2/conv2d_4/BiasAdd/ReadVariableOp f4 [64]
0.03513904 0.022339705 -0.016718864 0.06314978 -0.013958034 -0.014347377 0.041481517 -0.0096207475
-0.019288478 -0.030523399 -0.036889043 -0.014921383 -0.044774726 -0.04399697 -0.005726785 0.027754096
0.09754564 -0.018343862 -0.02977205 -0.008422172 0.008709251 -0.025755087 -0.02444809 -0.018812517
-0.028015245 -0.055667263 -0.07670548 -0.030465186 -0.024957215 -0.025340578 -0.054275766 -0.01104516
-0.06107686 0.021299347 0.019109331 0.034288894 -0.026918864 0.033092726 -0.02023807 -0.013806968
-0.07861001 -0.05345609 -0.041881673 -0.013294073 0.04875114 -0.06407265 0.15941462 -0.013467336
-0.040798526 -0.042183995 0.06375024 0.059342623 -0.03318803 -0.0323016 0.010439032 0.026188582
0.016370442 0.031724725 0.015541155 0.072211385 0.04246272 0.08388215 -0.029244805 -0.025337163
00000000: f4ed 0f3d c201 b73c 00f6 88bc ac54 813d
00000010: 3db0 64bc 4311 6bbc 86e8 293d 57a0 1dbc
00000020: df02 9ebc 350c fabc f718 17bd d178 74bc
00000030: b465 37bd 2b36 34bd c1a7 bbbb 8f5c e33c
00000040: 02c6 c73d de45 96bc 84e4 f3bc 26fd 09bc
00000050: 3fb1 0e3c 55fc d2bc 5c47 c8bc b51c 9abc
00000060: 3a80 e5bc 5b03 64bd c317 9dbd 2092 f9bc
00000070: 1373 ccbc 0b97 cfbc 4450 5ebd c2f6 34bc
00000080: bb2b 7abd f87b ae3c 2c8b 9c3c 8372 0c3d
00000090: f384 dcbc 3d8c 073d 4fca a5bc 9f36 62bc
000000a0: 49fe a0bd c6f4 5abd 1e8c 2bbd 62cf 59bc
000000b0: 46af 473d 8638 83bd 963d 233e 1aa6 5cbc
000000c0: 5b1c 27bd 20c9 2cbd 7c8f 823d 4011 733d
000000d0: 2cf0 07bd af4e 04bd 7908 2b3c 7089 d63c
000000e0: 4e1b 863c c9f1 013d 54a0 7e3c 90e3 933d
000000f0: 64ed 2d3d 68ca ab3d cd92 efbc e28f cfbc

sequential_2/conv2d_5/BiasAdd/ReadVariableOp f4 [64]
0.011394275 0.00044355585 -0.012081785 -0.011654402 0.10037661 -0.014298674 -0.0115117375 -0.017164128
-0.021461029 -0.013355904 -0.017236885 -0.013606195 -0.018690223 -0.010927353 -0.016490484 -0.024796309
0.009509578 0.07997531 0.011572952 0.04023735 -0.02485826 0.039153066 -0.031178089 -0.011890701
-0.024639757 -0.020560823 0.0393652 -0.05069583 -0.010730273 0.020411061 0.008604273 0.016622772
-0.0006564763 0.0063288803 -0.011600255 0.033144858 -0.016404396 0.083055325 -0.016554888 -0.02894647
-0.023590993 -0.03857703 -0.0109658325 0.007284852 0.024142941 -0.03952731 -0.004846806 -0.0050943475
-0.030438978 -0.037437435 -0.0075156195 0.068304166 -0.022739565 -0.034917284 0.008403705 0.09819127
0.009308097 -0.030433582 -0.005801649 -0.055882033 0.05680308 0.0065851505 -0.009757478 -0.0034686741
00000000: 0eaf 3a3c 0f8d e839 aef2 45bc 1bf2 3ebc
00000010: 4192 cd3d fc44 6abc ba9b 3cbc c99b 8cbc
00000020: 0acf afbc b9d2 5abc 5e34 8dbc 85ec 5ebc
00000030: 3d1c 99bc a408 33bc 0d17 87bc a121 cbbc
00000040: 10ce 1b3c 18ca a33d 7b9c 3d3c ebcf 243d
00000050: 8da3 cbbc f75e 203d 3169 ffbc 37d1 42bc
00000060: 51d9 c9bc 2c6f a8bc 673d 213d 6ea6 4fbd
00000070: 07ce 2fbc 1935 a73c f0f8 0c3c 7b2c 883c
00000080: 6117 2cba 7f62 cf3b ff0e 3ebc e7c2 073d
00000090: 8362 86bc e918 aa3d 1e9e 87bc 2621 edbc
000000a0: e641 c1bc f302 1ebd 09aa 33bc c5b5 ee3b
000000b0: 6bc7 c53c 63e7 21bd f5d1 9ebb 7cee a6bb
000000c0: 2a5b f9bc ff57 19bd 9645 f6bb 0ee3 8b3d
000000d0: 5348 babc 6d05 0fbd b2af 093c 8118 c93d
000000e0: fd80 183c d94f f9bc c21b bebb 8fe4 64bd
000000f0: 59aa 683d 3fc8 d73b d4dd 1fbc b252 63bb

sequential_2/conv2d_1/Conv2D f4 [64, 3, 3, 32]
0.16268459 0.027011123 -0.240583 -0.048758276 -0.028023634 -0.1133074 0.017684551 0.0692383
-0.06910554 -0.070375085 0.025067914 0.08984875 -0.0494083 -0.052883778 0.18350236 -0.0445542
-0.06654352 -0.08227799 -0.028986933 -0.071024716 -0.012564642 0.10279726 0.071489446 0.04618878
-0.0633028 0.10087067 -0.024324486 0.08348813 -0.029494395 0.13494445 0.12544484 0.092329055
0.13901831 0.04921938 -0.16947904 -0.14380401 0.022566218 0.050077602 -0.058773484 0.054836452
0.008651972 -0.010320192 0.044766814 0.044677608 -0.07289227 0.06261238 0.18830557 -0.10000952
-0.091613196 -0.15589975 -0.015474378 0.0116462065 0.031971615 -0.00064311165 -0.035664205 0.0030135512
-0.14892407 0.0004928522 0.028846972 -0.029349491 0.0332902 0.1200373 0.10421555 0.012161215
0.005591579 0.04134945 -0.16593076 -0.051114492 0.03693678 0.06445119 0.039805103 0.104113504
0.011084013 -0.01717348 -0.053166375 -0.041291945 -0.051853 0.072201654 0.18994026 -0.048815206
-0.04419807 -0.11523775 0.041314367 -0.06302011 0.12590893 0.024429405 0.035855968 0.04269258
-0.03637015 0.0035510336 0.07006273 -0.00085350504 0.083288565 -0.031910967 0.024862628 0.07493271
0.07534427 -0.010094968 -0.12337468 -0.17015566 0.089915 0.033694487 -0.01057091 0.06520964
-0.053287987 -0.04119273 0.084712625 -0.062119525 0.055176947 -0.06440537 0.055697743 -0.10780933
0.04183791 -0.008676 0.021796072 -0.0007944044 0.04529762 0.123983465 0.049775086 -0.032192074
-0.0890425 0.08865878 0.05643977 -0.079994395 0.09688834 -0.044791803 -0.0009514426 -0.02249145
0.042548276 0.08107953 -0.0662652 -0.093550734 -0.07489299 0.0065306695 -0.06024961 -0.02237538
0.022807103 -0.09747372 0.029497543 -0.13305643 -0.030672714 -0.042994045 0.116822794 -0.12459812
-0.03411745 -0.10314269 0.057293385 -0.061973553 0.1359083 0.11762123 0.04300875 -0.08212813
-0.16889279 -0.013113865 0.025317436 -0.14179455 -0.04532078 -0.0827606 0.019100549 -0.04367352
-0.016126966 0.054038677 -0.16880529 -0.13954526 -0.04547934 0.13256344 -0.059549693 0.13725995
0.035864115 -0.09283135 0.019871457 -0.019693049 -0.14399992 -0.01178175 0.12860848 -0.019945897
0.024736686 -0.106859095 -0.029080668 -0.039321557 0.22481816 0.01656885 -0.043292016 0.039852083
-0.059369415 -0.13297519 -0.07943786 -0.044871017 0.078411445 -0.005044027 0.05313347 0.02443119
0.09812786 -0.0592527 -0.17322998 -0.16949892 0.041484967 0.022113582 0.048813805 0.061193556
0.114015795 -0.110038996 -0.03912699 0.016815046 0.051163685 0.03643612 -0.0072457944 -0.13522364
0.018981554 -0.052002072 0.027206544 -0.057592522 -0.07892073 0.069787204 0.13996631 0.03494823
-0.011263645 0.07282719 0.06694606 -0.080893904 -0.08151365 -0.018070271 0.0071652713 0.021341296
-0.023510108 -0.017456628 -0.1467538 -0.12103153 -0.049350828 0.10628398 -0.031893454 0.06858302
0.07249364 -0.13635144 -0.020378824 -0.11051023 -0.13796058 0.032995366 -0.01651925 -0.049729016
0.010297154 -0.10638496 -0.08662454 -0.062386047 0.09335821 0.10232362 0.07006625 0.071280085
-0.07687957 -0.050587848 0.01580914 -0.021101704 -0.047496706 -0.16905034 0.15162693 -0.105723135
00000000: ca96 263e 6e46 dd3c 645b 76be c2b6 47bd
00000010: d291 e5bc b60d e8bd 31df 903c cfcc 8d3d
00000020: 3587 8dbd d020 90bd 3a5b cd3c 9f02 b83d
00000030: 5c60 4abd a99c 58bd 0be8 3b3e 777e 36bd
00000040: f847 88bd 5d81 a8bd 0176 edbc 6875 91bd
00000050: eedb 4dbc 5f87 d23d 0f69 923d 7230 3d3d
00000060: e6a4 81bd 4895 ce3d 2544 c7bc d3fb aa3d
00000070: 3b9e f1bc e12e 0a3e 9d74 003e 0417 bd3d
00000080: d15a 0e3e 439a 493d ea8b 2dbe 5c41 13be
00000090: cadc b83c 2c1e 4d3d 77bc 70bd 309c 603d
000000a0: 00c1 0d3c 0616 29bc 685d 373d deff 363d
000000b0: 8b48 95bd eb3a 803d 2dd3 403e cbd1 ccbd
000000c0: b39f bbbd 2fa4 1fbe 3f88 7dbc bbcf 3e3c
000000d0: abf4 023d 7e96 28ba a114 12bd 007f 453b
000000e0: 8d7f 18be c032 013a 7c50 ec3c 586e f0bc
000000f0: 4e5b 083d 1ed6 f53d f66e d53d d53f 473c
00000100: 9039 b73b 0a5e 293d c1e9 29be 6e5d 51bd
00000110: 054b 173d fcfe 833d ad0a 233d 7639 d53d
00000120: b899 353c 66af 8cbc fcc4 59bd be21 29bd
00000130: d063 54bd 76de 933d b37f 423e 74f2 47bd
00000140: 0909 35bd c501 ecbd 4139 293d b010 81bd
00000150: 45ee 003e 2d20 c83c b5dd 123d 6ade 2e3d
00000160: def8 14bd 75b8 683b 0c7d 8f3d c1bd 5fba
00000170: 3293 aa3d 13b5 02bd b6ac cb3c 5276 993d
00000180: 194e 9a3d 5d65 25bc ddab fcbd 493d 2ebe
00000190: 5b25 b83d 3b03 0a3d 9c31 2dbc a28c 853d
000001a0: 8144 5abd b5b9 28bd d07d ad3d 0b71 7ebd
000001b0: 3901 623d f6e6 83bd 5123 643d 23cb dcbd
000001c0: 3a5e 2b3d c825 0ebc ad8d b23c 943f 50ba
000001d0: ff89 393d 0beb fd3d f6e0 4b3d d6db 03bd
000001e0: ea5b b6bd bc92 b53d 632d 673d 1ad4 a3bd
000001f0: 656d c63d 9c77 37bd 3b6a 79ba fd3f b8bc
00000200: 1a47 2e3d 060d a63d 0db6 87bd 8797 bfbd
00000210: 7f61 99bd 3aff d53b 4cc8 76bd 934c b7bc
00000220: f6d5 ba3c 4da0 c7bd d5a4 f13c f23f 08be
00000230: 5845 fbbc 861a 30bd ca40 ef3d 4d2d ffbd
00000240: bdbe 0bbd 7a3c d3bd 78ac 6a3d fbd7 7dbd
00000250: 8c2b 0b3e 66e3 f03d f129 303d cb32 a8bd
00000260: 3bf2 2cbe 89db 56bc 8366 cf3c 9732 11be
00000270: 48a2 39bd 647e a9bd c178 9c3c 01e3 32bd
00000280: b31c 84bc a957 5d3d 4bdb 2cbe f4e4 0ebe
00000290: 8b48 3abd b6be 073e 61ea 73bd df8d 0c3e
000002a0: 40e6 123d 5d1e bebd 77c9 a23c 5153 a1bc
000002b0: b774 13be 3e08 41bc f1b1 033e 9465 a3bc
000002c0: 97a4 ca3c f1d8 dabd 953a eebc a40f 21bd
000002d0: bb36 663e 66bb 873c f852 31bd f03b 233d
000002e0: 582d 73bd a62a 08be 51b0 a2bd acca 37bd
000002f0: 2e96 a03d 5e48 a5bb 7ba2 593d eb23 c83c
00000300: 42f7 c83d f6b2 72bd 3363 31be 2091 2dbe
00000310: 24ec 293d 8b27 b53c fcf0 473d 18a6 7a3d
00000320: 1d81 e93d 205c e1bd 9f43 20bd b5bf 893c
00000330: 0391 513d 0a3e 153d 216e edbb 1178 0abe
00000340: 347f 9b3c 2000 55bd 42e0 de3c 23e6 6bbd
00000350: 31a1 a1bd 98ec 8e3d 5453 0f3e e025 0f3d
00000360: 278b 38bc 6c26 953d 041b 893d b4ab a5bd
00000370: a1f0 a6bd 1b08 94bc a7ca ea3b f1d3 ae3c
00000380: 4598 c0bc 3401 8fbc a146 16be 61df f7bd
00000390: 1824 4abd 6aab d93d b6a2 02bd 4175 8c3d
000003a0: 8c77 943d b69f 0bbe 7ef1 a6bc 3053 e2bd
000003b0: 8a45 0dbe 2626 073d 6153 87bc a7b0 4bbd
000003c0: 65b5 283c 5ce0 d9bd 3568 b1bd 8388 7fbd
000003d0: 9732 bf3d 0c8f d13d e57e 8f3d 4bfb 913d
000003e0: 0973 9dbd 3435 4fbd 2b82 813c 7bdd acbc
000003f0: e88b 42bd 881b 2dbe 1744 1b3e 5f85 d8bd

sequential_2/conv2d_2/Conv2D f4 [64, 3, 3, 64]
0.033941083 -0.04711516 -0.014388157 -0.04941351 0.0005403627 -0.044481076 0.025057405 -0.050759353
0.044284258 -0.037240453 0.012634193 -0.0315021 -0.01721741 -0.010624881 0.060225952 -0.0032011194
-0.05020975 -0.056050386 -0.06627468 -0.040481843 0.024673168 0.008786292 0.061072845 0.03370943
0.07143145 -0.062700436 -0.053882547 -0.030486122 -0.011385088 0.030165087 0.047524374 -0.010835554
-0.029011156 -0.073539816 0.022085948 -0.04998369 -0.00055096846 -0.07050087 0.039070502 0.055340603
-0.046337277 0.057567585 0.043760113 0.0774573 0.003728174 0.003554895 0.03900236 -0.03714557
-0.034472853 -0.02179608 -0.031195888 -0.08382148 -0.053785894 -0.06778031 -0.061206132 -0.05666642
-0.006869621 -0.037487227 -0.029233314 0.027726745 0.05372208 0.0036954337 0.03763235 -0.01044219
-0.07494848 -0.008265176 -0.02961035 -0.042133827 -0.021483585 0.059028633 -0.0143421395 0.03164905
0.037280425 0.0059012226 0.04581569 0.038104426 0.048830282 -0.021850072 -0.03647919 0.026789468
0.010323275 0.040152337 -0.054660972 0.015010257 -0.06487044 -0.0280554 -0.06334968 -0.039682433
-0.007302151 0.060184408 -0.05512276 -0.03393141 0.00015470046 -0.03395588 0.01138105 0.017384868
0.039070718 -0.075019516 0.041008715 0.041770972 -0.0562396 0.046723384 -0.06628169 0.0147983
0.07202652 -0.04628567 -0.03433332 0.06045989 0.058979407 0.01911451 -0.0033823217 0.026438901
-0.029955858 0.022655401 -0.035048917 -0.043352254 -0.037834138 0.038497683 0.05328179 -0.05613216
0.050855357 -0.06389921 -0.0015612679 -0.051108398 0.001740443 0.004023049 0.06351746 0.06802524
0.0011816862 0.03239779 -0.059824187 0.049031816 0.008686813 -0.026924506 -0.0076313093 -0.02944011
-0.006453278 0.020696286 -0.026886232 0.03812539 0.027596854 0.058509257 -0.030011913 -0.04150607
-0.05110586 -0.07923424 -0.0042029964 -0.0109512815 -0.043965753 -0.054971427 0.06358096 -0.036704924
-0.041419204 -0.010215968 0.05192442 0.04748335 0.04330053 -0.02132925 0.049376708 -0.0046469644
0.04401252 -0.027376022 0.062210705 -0.016851218 -0.07082792 0.03217877 -0.06737145 -0.015890284
0.05014084 0.01862763 0.01479005 -0.034191087 0.05176475 -0.06799923 -0.004960736 0.0026070958
0.003226341 -0.016032998 -0.03299831 0.039968386 -0.043856237 -0.022997547 0.053032774 -0.006121647
-0.01997285 0.024299633 0.024633147 0.011368169 -0.03273082 0.043300048 -0.011231584 -0.04652115
0.046090227 0.012631072 0.018491121 0.008090317 0.041896127 0.013422018 -0.057314217 -0.064244136
-0.079502724 0.002121849 0.01903537 -0.010804606 0.035021253 0.037108358 0.007233224 0.0031881407
-0.05166257 0.024439616 -0.030802988 0.013021911 -0.0070834877 -0.055469513 0.028213026 -0.02708079
-0.0758024 0.005189326 -0.05860906 0.051785383 -0.021376092 0.041549455 -0.07738346 -0.05200306
0.009115862 -0.011295389 -0.05818512 -0.014212468 0.0058919354 -0.039143164 -0.002286155 0.07900009
0.023543624 -0.00953501 -0.06794348 0.07310214 0.013063222 -0.06745685 -0.057121336 -0.029019909
0.022165809 0.053747334 -0.027274184 -0.037587423 0.052507404 -0.035861015 -0.071521215 0.03303877
-0.030711344 -0.017194258 -0.002643491 0.04007784 0.05384735 -0.0254517 0.023549322 -0.02205596
00000000: ce05 0b3d d3fb 40bd 4ebc 6bbc d265 4abd
00000010: 20a7 0d3a ca31 36bd 3045 cd3c 0ae9 4fbd
00000020: 6963 353d 7289 18bd a5ff 4e3c 5908 01bd
00000030: 870b 8dbc fb13 2ebc 7daf 763d dfc9 51bb
00000040: bda8 4dbd 1795 65bd 05bb 87bd 4ad0 25bd
00000050: 621f ca3c 61f4 0f3c 8527 7a3d e612 0a3d
00000060: a74a 923d 1669 80bd f2b3 5cbd 08be f9bc
00000070: 8588 3abc c61c f73c eba8 423d 9c87 31bc
00000080: cea8 edbc 0b9c 96bd 97ed b43c b3bb 4cbd
00000090: de6e 10ba c362 90bd 6408 203d d4ac 623d
000000a0: 28cc 3dbd fdcb 6b3d ce3d 333d efa1 9e3d
000000b0: 6154 743b 3ef9 683b f0c0 1f3d f425 18bd
000000c0: 6833 0dbd b18d b2bc 858e ffbc 99aa abbd
000000d0: 994e 5cbd 67d0 8abd 48b3 7abd 0c1b 68bd
000000e0: 8f1a e1bb 358c 19bd b47a efbc 3323 e33c
000000f0: af0b 5c3d 172f 723b 6124 1a3d b815 2bbc
00000100: 977e 99bd a96a 07bc 6891 f2bc 8594 2cbd
00000110: 58fe afbc 02c8 713d 4bfb 6abc 6fa2 013d
00000120: 5cb3 183d 0b5f c13b 3ca9 3b3d 6313 1c3d
00000130: 4302 483d ecfe b2bc 346b 15bd 9675 db3c
00000140: f422 293c c776 243d 2fe4 5fbd 95ed 753c
00000150: cbda 84bd 70d4 e5bc 7abd 81bd 0c8a 22bd
00000160: e246 efbb ed83 763d 67c8 61bd aafb 0abd
00000170: 1737 2239 5215 0bbd 9577 3a3c b66a 8e3c
00000180: 9e08 203d d5a3 99bd c1f8 273d 0a18 2b3d
00000190: 7f5b 66bd 0561 3f3d b2be 87bd 9274 723c
000001a0: a482 933d 0b96 3dbd 18a1 0cbd caa4 773d
000001b0: 6494 713d 0896 9c3c f1a9 5dbb 6596 d83c
000001c0: fd65 f5bc d297 b93c 748f 0fbd 2292 31bd
000001d0: f8f7 1abd bfaf 1d3d 023e 5a3d d6ea 65bd
000001e0: b54d 503d 97dd 82bd 75a3 ccba 0a57 51bd
000001f0: 941f e43a c8d3 833b 7115 823d d150 8b3d
00000200: cfe2 9a3a 8cb3 043d 350a 75bd 96d5 483d
00000210: 2253 0e3c c890 dcbc 1010 fabb 632c f1bc
00000220: 0576 d3bb 428b a93c 8440 dcbc 5e29 1c3d
00000230: cc12 e23c 67a7 6f3d 8bdb f5bc 4502 2abd
00000240: 6154 51bd 9045 a2bd 4ab9 89bb 016d 33bc
00000250: 6f15 34bd b829 61bd bc36 823d e757 16bd
00000260: 2fa7 29bd e060 27bc b3ae 543d e77d 423d
00000270: e65b 313d aeba aebc 3b3f 4a3d 9045 98bb
00000280: 7946 343d ae43 e0bc a7d0 7e3d 910b 8abc
00000290: 3b0e 91bd e3cd 033d 0bfa 89bd 572c 82bc
000002a0: 7b60 4d3d f998 983c f751 723c f40b 0cbd
000002b0: 4607 543d 2e43 8bbd ab8d a2bb cfdb 2a3b
000002c0: 0571 533b a257 83bc 3c29 07bd e4b5 233d
000002d0: 99a2 33bd 5a65 bcbc e538 593d 1998 c8bb
000002e0: 1a9e a3bc 0610 c73c 74cb c93c 8f41 3a3c
000002f0: c110 06bd 645b 313d ad04 38bc f68c 3ebd
00000300: 1bc9 3c3d 8ef2 4e3c b17a 973c 408d 043c
00000310: 469b 2b3d 06e8 5b3c 50c2 6abd 6e92 83bd
00000320: 53d2 a2bd b80e 0b3b 10f0 9b3c cd05 31bc
00000330: 7272 0f3d effe 173d ae04 ed3b 20f0 503b
00000340: 229c 53bd 9735 c83c 8c56 fcbc da59 553c
00000350: 9a1c e8bb 0034 63bd 011f e73c 88d8 ddbc
00000360: 4a3e 9bbd 390b aa3b 0e10 70bd e91c 543d
00000370: ea1c afbc c32f 2a3d 387b 9ebd 2901 55bd
00000380: b25a 153c 4c10 39bc 8553 6ebd 69db 68bc
00000390: 2311 c13b 9554 20bd 51d3 15bb cdca a13d
000003a0: 8fde c03c bb38 1cbc f425 8bbd 93b6 953d
000003b0: 2007 563c d126 8abd 10f8 69bd 29bb edbc
000003c0: 1295 b53c 2a26 5c3d 1c6e dfbc 45f5 19bd
000003d0: 0112 573d 00e3 12bd b779 92bd a953 073d
000003e0: 5b96 fbbc f9da 8cbc 6b3e 2dbb a928 243d
000003f0: 0a8f 5c3d 1580 d0bc 82ea c03c b3ae b4bc

sequential_2/conv2d_3/Conv2D f4 [64, 3, 3, 64]
0.013509813 -0.051055763 -0.0054856483 -0.03160546 -0.0041446146 -0.031737063 -0.028428724 -0.031174904
0.07894683 0.023660678 0.020976534 -0.00035321014 0.034657393 -0.036251735 0.07204681 0.05950409
0.0034292939 -0.03466126 0.04338845 -0.00019750753 0.013721928 -0.008576839 -0.044682603 -0.06508737
0.005864296 0.0054203854 0.12476368 -0.0619975 0.03828426 -0.040368617 0.05087154 0.037415273
0.058134865 -0.03636253 0.03126385 0.05655013 0.059130024 0.024803886 -0.09501406 -0.020671971
0.037413605 -0.097374626 0.039726805 0.04746239 0.0651965 0.06967955 0.0778983 0.02907403
0.054930497 0.08328342 -0.026153104 0.112013936 -0.008934831 0.0026929474 0.0016831515 0.009198362
0.12249197 -0.028562067 0.056956206 0.06903461 0.055570774 -0.02275506 -0.05199185 0.100130916
0.048409984 0.06060657 -0.029403381 0.0027446786 -0.009949424 0.05400303 -0.035565197 0.023918651
0.11684997 0.02310349 -0.05140923 -0.0009992722 -0.03695063 -0.057108406 0.074161254 -0.020891441
0.0023079053 -0.08430102 -0.0060283476 0.012715325 -0.050381098 -0.038148466 0.019270979 0.033564832
0.017560542 -0.044685412 0.064226404 0.043011088 0.108587034 -0.04816772 0.019225651 0.04020143
0.11542797 -0.023977501 0.098885104 0.043636117 -0.022856023 -0.027560009 -0.01707919 0.113786325
0.011417196 -0.029000217 0.11819208 -0.03789445 -0.0066023925 0.037987664 0.079444654 -0.07627643
0.047132574 -0.011256297 -0.0019446958 0.02041102 -0.08271707 0.0339513 0.09557323 -0.030287802
0.039182562 0.03707626 0.067765474 0.024995422 0.05085189 0.032909587 0.0474268 -0.027172871
0.046500996 -0.03367756 -0.024261955 0.054693516 -0.0028459677 0.0027621067 -0.029702473 0.0957453
-0.030402154 -0.116248295 -0.057676446 0.030254629 -0.0036765253 -0.009189641 0.023011593 0.033904117
0.051308166 -0.069303736 -0.034261595 0.012825581 0.061883535 -0.09259939 -0.038403247 -0.045640457
0.03314662 -0.010391556 -0.0008617543 0.028961342 0.0076313913 0.00031202484 0.06388598 -0.059556868
-0.013573999 -0.051047165 0.031892538 -0.017869866 -0.008167381 0.04055037 -0.11117069 0.027959408
-0.0729773 -0.058592 -0.0005969223 0.036638394 -0.015645396 -0.0016416743 -0.0082459655 -0.047093745
-0.00894107 0.06079539 -0.01705847 0.005796597 0.020858748 -0.04039548 -0.049981296 -0.10770654
0.029918876 -0.026085721 -0.059292633 0.00033052065 0.05758188 -0.12362832 0.031809784 0.043365967
-0.05082095 -0.013015092 -0.01704165 -0.0671179 0.01187679 0.009837239 0.023602702 -0.014931524
0.020383535 -0.060953453 -0.019101147 0.06253889 0.004356829 0.0008530048 0.082674675 0.028839061
-0.0038052525 -0.019715251 -0.07298679 0.014222385 -0.012519714 0.039808154 0.059959143 0.052506912
-0.013475688 0.024841389 0.010732753 0.02189445 0.0017897922 0.0024752077 0.0419719 -0.01815457
0.00051368854 -0.06971513 -0.0069170226 -0.0484192 -0.020660257 0.114780664 -0.029595615 0.016534332
0.00105117 -0.11857882 0.037488446 0.029666314 -0.023084417 0.0022711616 0.037536863 -0.01566862
-0.037360895 0.116885945 0.0646286 0.02111627 -0.065916955 -0.027035993 0.084699206 -0.07946582
0.07183914 -0.003933443 -0.060195383 -0.043333992 -0.03575614 -0.039745536 -0.051301006 -0.033007305
00000000: 4358 5d3c d91f 51bd f4c0 b3bb ba74 01bd
00000010: 8ccf 87bb b9fe 01bd 5be3 e8bc 8362 ffbc
00000020: e0ae a13d 0ad4 c13c fbd6 ab3c 102f b9b9
00000030: e9f4 0d3d b37c 14bd 478d 933d 90ba 733d
00000040: 01be 603b f7f8 0dbd 16b8 313d 061a 4fb9
00000050: f0d1 603c df85 0cbc 1b05 37bd 874c 85bd
00000060: 4829 c03b 7d9d b13b 1a84 ff3d 17f1 7dbd
00000070: f5cf 1c3d 9059 25bd ad5e 503d c240 193d
00000080: d31e 6e3d e0f0 14bd 860e 003d 1ca1 673d
00000090: 5332 723d 8531 cb3c bb96 c2bd 4458 a9bc
000000a0: 023f 193d 596c c7bd 93b8 223d ec67 423d
000000b0: be85 853d 27b4 8e3d 2589 9f3d a92c ee3c
000000c0: cdfe 603d 7f90 aa3d 093f d6bc 9067 e53d
000000d0: 6663 12bc 297c 303b 319d dc3a bab4 163c
000000e0: 12dd fa3d fffa e9bc e94a 693d 0562 8d3d
000000f0: 2e9e 633d d268 babc 68f5 54bd 7011 cd3d
00000100: 8c49 463d 983e 783d 5cdf f0bc 11e0 333b
00000110: e902 23bc 4832 5d3d d0ac 11bd 0cf1 c33c
00000120: 094f ef3d 8843 bd3c 7c92 52bd 03fa 82ba
00000130: 8b59 17bd 81ea 69bd dbe1 973d 8724 abbc
00000140: 3a40 173b 03a6 acbd 7289 c5bb f053 503c
00000150: 695c 4ebd 9141 1cbd 2cde 9d3c 477b 093d
00000160: 20db 8f3c 0d08 37bd 2289 833d 652c 303d
00000170: e162 de3d 844b 45bd 1d7f 9d3c 41aa 243d
00000180: 8065 ec3d 776c c4bc 4684 ca3d c9bb 323d
00000190: 8e3c bbbc 87c5 e1bc a8e9 8bbc ce08 e93d
000001a0: 310f 3b3c dd91 edbc b00e f23d 3637 1bbd
000001b0: e258 d8bb f498 1b3d e1b3 a23d d136 9cbd
000001c0: 160e 413d 556c 38bc 2ae5 feba 0335 a73c
000001d0: 9167 a9bd 8510 0b3d e6bb c33d 201e f8bc
000001e0: e57d 203d 47dd 173d a0c8 8a3d 33c3 cc3c
000001f0: 124a 503d 34cc 063d 9b42 423d a499 debc
00000200: d477 3e3d 7bf1 09bd 02c1 c6bc 4f06 603d
00000210: 6a83 3abb 7604 353b 9a52 f3bc 1d16 c43d
00000220: f00d f9bc 9613 eebd 233e 6cbd 8ed8 f73c
00000230: dcf1 70bb 2690 16bc cf82 bc3c 0bdf 0a3d
00000240: 8328 523d 1eef 8dbd e355 0cbd 6322 523c
00000250: 9779 7d3d c0a4 bdbd b94c 1dbd 7df1 3abd
00000260: c0c4 073d 5841 2abc 5ae7 61ba 5640 ed3c
00000270: c010 fa3b 4497 a339 a7d6 823d e7f1 73bd
00000280: 7a65 5ebc d516 51bd c0a1 023d d363 92bc
00000290: 7bd0 05bc 2518 263d 75ad e3bd 210b e53c
000002a0: 1f75 95bd 2afe 6fbd c77a 1cba 2412 163d
000002b0: c62a 80bc 732d d7ba 161a 07bc 5fe5 40bd
000002c0: 917d 12bc 9604 793d 34be 8bbc 61f1 bd3b
000002d0: f7df aa3c bb75 25bd 30b9 4cbd 3f95 dcbd
000002e0: 6e18 f53c b9b1 d5bc d5dc 72bd bb49 ad39
000002f0: fada 6b3d d830 fdbd fa4a 023d 83a0 313d
00000300: a129 50bd 413d 55bc ee9a 8bbc 1c75 89bd
00000310: de96 423c 5f2c 213c 745a c13c 5aa3 74bc
00000320: 5ffb a63c 54aa 79bd 027a 9cbc 6414 803d
00000330: bbc3 8e3b 2f9c 5f3a 5751 a93d e53f ec3c
00000340: 8b61 79bb e181 a1bc 197a 95bd 0205 693c
00000350: 7d1f 4dbc e00d 233d b897 753d 7d11 573d
00000360: 22c9 5cbc 2b80 cb3c 6ed8 2f3c fd5b b33c
00000370: 7697 ea3a 1837 223b baea 2b3d e5b8 94bc
00000380: 0ea9 063a cec6 8ebd 31a8 e2bb 3653 46bd
00000390: b33f a9bc 2012 eb3d 8172 f2bc 0273 873c
000003a0: 6ac7 893a 74d9 f2bd 7c8d 193d c506 f33c
000003b0: 881b bdbc c5d7 143b 41c0 193d 7a5b 80bc
000003c0: bd07 19bd e661 ef3d 005c 843d 07fc ac3c
000003d0: 78ff 86bd 967a ddbc c776 ad3d fabe a2bd
000003e0: 6620 933d 1de4 80bb 6f8f 76bd fc7e 31bd
000003f0: 0875 12bd 37cc 22bd 0121 52bd ab32 07bd

sequential_2/conv2d_4/Conv2D f4 [64, 3, 3, 64]
-0.110047676 -0.10446109 0.006592735 0.022078102 -0.049210943 -0.054705154 -0.07475836 -0.04337951
-0.0029722648 -0.011840963 0.04340896 0.09671186 -0.0025939879 -0.01603468 -0.019143058 0.054068346
0.049765237 -0.026928393 -0.064472854 -0.063905485 0.026246468 0.007176506 0.01083405 -0.033741117
-0.033529036 -0.011073702 -0.066257395 -0.00038575032 -0.021368813 -0.12223121 -0.0039554504 -0.017485173
-0.050578628 0.01839119 -0.008148132 -0.008651726 -0.036736853 -0.012995754 -0.0011102369 -0.058471665
-0.08527349 -0.06423226 0.02133615 -0.020117164 0.040667553 -0.09116823 -0.034250073 0.059828717
-0.10702307 0.052880168 -0.06634777 -0.038906768 -0.021795176 -0.0963359 0.038040224 0.03630977
-0.030501943 -0.048496164 0.020743333 -0.09258321 0.035580978 0.039688844 -0.047912348 -0.050845627
-0.13879198 -0.058412284 -0.025506902 -0.07139539 -0.04678344 -0.10156168 -0.019672796 -0.0070752855
0.01245715 -0.06922631 -0.008140567 -0.089017965 -0.05285143 0.040635 -0.069370724 0.02356851
-0.049953625 0.0524384 0.03920643 -0.010365506 -0.048123416 -0.015927808 -0.06414064 -0.13366337
-0.007022314 0.058123406 0.040136456 -0.13186592 -0.07376543 -0.11533526 0.002910119 -0.0690023
0.008313758 0.039190575 -0.059142496 -0.040200915 -0.05272741 0.03193626 0.03605004 0.037953217
-0.036132365 -0.009821064 -0.044699173 -0.07645158 -0.051275447 -0.04386741 0.022256432 -0.084089436
-0.07643706 -0.05404602 -0.11041959 -0.024746418 -0.077063575 0.006485266 -0.06493145 0.07090125
-0.05721584 -0.09504723 -0.025560262 -0.07080823 -0.07581808 0.13805549 -0.07617775 -0.026965998
-0.040685356 -0.07887827 -0.037194185 -0.012394531 -0.003751085 -0.03963054 -0.08104998 0.029722936
-0.03163173 -0.12091704 0.044616174 -0.011866824 -0.07464409 0.065001 0.0077203307 0.024738356
-0.01396843 0.04171273 0.0719093 -0.09892073 0.09084882 -0.04102028 -0.0007071595 -0.09081417
-0.0058219614 -0.004648785 0.015187163 -0.08363685 0.014388672 -0.101967506 0.072137594 -0.13461329
-0.0040294062 -0.048701175 -0.03564127 0.018882941 0.038685076 -0.05845233 0.020868413 0.033066615
-0.03702751 -0.09926366 -0.07030898 -0.06328103 0.028441837 -0.0022220765 0.08898998 -0.018689277
-0.12807734 0.024128847 0.025276497 -0.15697768 -0.051684856 0.0096017225 0.041389927 0.09744692
-0.0058829375 -0.05244272 0.022822505 -0.10171913 0.03488405 0.15411332 0.02150798 -0.11738056
-0.048317157 0.029018184 -0.045985527 -0.07530496 -0.049333334 0.021519938 -0.040949002 -0.035316624
-0.07124184 -0.01302811 0.04233316 -0.033664603 -0.008813117 -0.044905532 0.0014078533 0.028019125
0.046348564 0.032912247 -0.06783387 -0.006522979 0.017329015 -0.11042022 0.036296193 0.0028911189
0.0011455329 -0.06556529 -0.05544782 -0.09920484 0.051168293 -0.06170266 0.06596085 -0.1001357
0.0073482227 -0.04848927 0.01250243 -0.02547973 -0.041844122 0.0006062543 0.024283037 -0.076734275
-0.073568486 0.010324537 0.04415811 -0.10286509 -0.033667166 -0.100783125 0.057870187 -0.0026617653
-0.013012352 0.024272252 -0.077032395 -0.023069542 -0.057061207 -0.029608991 5.106628e-05 -0.0037533818
0.040150784 0.03444699 0.05082232 -0.086451665 -0.037065327 0.08000077 -0.06013957 -0.05595519
00000000: ad60 e1bd b2ef d5bd df07 d83b 23dd b43c
00000010: 6a91 49bd 8312 60bd e91a 99bd b7ae 31bd
00000020: 54ca 42bb 9900 42bc 98cd 313d de10 c63d
00000030: e5ff 29bb 295b 83bc e7d1 9cbc c576 5d3d
00000040: a2d6 4b3d ef98 dcbc 580a 84bd e1e0 82bd
00000050: d502 d73c e528 eb3b 4d81 313c 2034 0abd
00000060: be55 09bd 796e 35bc f5b1 87bd 883e cab9
00000070: a60d afbc 5b54 fabd b99c 81bb 113d 8fbc
00000080: 892b 4fbd 1fa9 963c be7f 05bc f8bf 0dbc
00000090: 6279 16bd 25ec 54bc 5e85 91ba fc7f 6fbd
000000a0: dea3 aebd 348c 83bd 26c9 ae3c c0cc a4bc
000000b0: 0593 263d 69b6 babd ce49 0cbd f50e 753d
000000c0: e92e dbbd e098 583d 57e1 87bd b45c 1fbd
000000d0: cc8b b2bc c24b c5bd 11d0 1b3d 8eb9 143d
000000e0: 36df f9bc eaa3 46bd eced a93c 449c bdbd
000000f0: 5cbd 113d c590 223d bd3f 44bd 8143 50bd
00000100: 7c1f 0ebe b841 6fbd daf3 d0bc bf37 92bd
00000110: fe9f 3fbd 92ff cfbd d828 a1bc ccd7 e7bb
00000120: 1319 4c3c 86c6 8dbd 0360 05bc 0d4f b6bd
00000130: be7a 58bd e370 263d 3d12 8ebd bf12 c13c
00000140: 2c9c 4cbd a6c9 563d ec96 203d 15d4 29bc
00000150: 0f1d 45bd 097b 82bc 2b5c 83bd 0ddf 08be
00000160: 701b e6bb cf12 6e3d 2066 243d dc07 07be
00000170: 5412 97bd e534 ecbd b2b7 3e3b 1451 8dbd
00000180: 6e36 083c 4c86 203d 673f 72bd b7a9 24bd
00000190: b2f8 57bd 99cf 023d 35a9 133d d574 1b3d
000001a0: 88ff 13bd 87e8 20bc 7b16 37bd a592 9cbd
000001b0: 3406 52bd 50ae 33bd 1f53 b63c 1537 acbd
000001c0: 098b 9cbd 5c5f 5dbd aa23 e2bd 00b9 cabc
000001d0: 82d3 9dbd 5b82 d43b c8fa 84bd ad34 913d
000001e0: 285b 6abd 1fa8 c2bd c163 d1bc e803 91bd
000001f0: 8246 9bbd 6b5e 0d3e 1503 9cbd cce7 dcbc
00000200: b0a5 26bd ee8a a1bd ee58 18bd 6e12 4bbc
00000210: c3d4 75bb a253 22bd 88fd a5bd 847d f33c
00000220: 4690 01bd 5aa3 f7bd 73bf 363d 116d 42bc
00000230: 00df 98bd 3f1f 853d d4fa fc3b 18a8 ca3c
00000240: d8db 64bc f8da 2a3d 2f45 933d f496 cabd
00000250: f20e ba3d e204 28bd ac60 39ba c8fc b9bd
00000260: 27c6 bebb d654 98bb 94d3 783c cc49 abbd
00000270: 77be 6b3c 57d4 d0bd e0bc 933d 11d8 09be
00000280: 1c09 84bb e27a 47bd 95fc 11bd 66b0 9a3c
00000290: 3e74 1e3d b66b 6fbd 3cf4 aa3c dc70 073d
000002a0: 29aa 17bd bf4a cbbd 28fe 8fbd 7c99 81bd
000002b0: dbfe e83c 42a0 11bb 6140 b63d 411a 99bc
000002c0: b526 03be dca9 c53c a810 cf3c c2be 20be
000002d0: 80b3 53bd 8b50 1d3c 7c88 293d 4092 c73d
000002e0: a8c5 c0bb 2dce 56bd 43f6 ba3c 1f52 d0bd
000002f0: 94e2 0e3d e2cf 1d3e 8131 b03c 3865 f0bd
00000300: 36e8 45bd 8bb7 ed3c 525b 3cbd 7d39 9abd
00000310: c011 4abd 954a b03c 24ba 27bd 2aa8 10bd
00000320: 3ee7 91bd db73 55bc 8965 2d3d e5e3 09bd
00000330: e464 10bc ddee 37bd b887 b83a 5d88 e53c
00000340: fed7 3d3d fece 063d 7cec 8abd b7be d5bb
00000350: 94f5 8d3c ff23 e2bd 51ab 143d ed78 3d3b
00000360: b525 963a 1847 86bd 411d 63bd e82b cbbd
00000370: d895 513d eebb 7cbd 7b16 873d f213 cdbd
00000380: 5cc9 f03b af9c 46bd fed6 4c3c deba d0bc
00000390: be64 2bbd 0aed 1e3a 38ed c63c dc26 9dbd
000003a0: 13ab 96bd 3f28 293c 22df 343d efaa d2bd
000003b0: 95e6 09bd 6267 cebd 4a09 6d3d 0371 2ebb
000003c0: c331 55bc 9ad6 c63c 29c3 9dbd 56fc bcbc
000003d0: 03b9 69bd 8e8e f2bc 0030 5638 4cfb 75bb
000003e0: 2675 243d 4918 0d3d 112b 503d 920d b1bd
000003f0: d0d1 17bd 72d7 a33d e954 76bd 4531 65bd

sequential_2/conv2d_5/Conv2D f4 [64, 3, 3, 64]
-0.0056501315 -0.031619675 -0.030892879 -0.015607406 -0.041987278 0.025046162 -0.0833561 -0.08841835
-0.030808793 0.010855902 0.00035698418 -0.06391896 0.08809865 0.04168698 0.004685143 -0.12258562
-0.1174257 -0.021833714 -0.037470255 0.041118145 0.02101822 0.028002737 0.040023666 0.020283546
-0.037719853 -0.0893069 0.0474546 -0.04487514 -0.11778938 0.012057571 0.119946525 0.062750265
0.05085123 0.04613083 -0.011186834 0.06251884 -0.019293431 0.09980893 -0.009342213 -0.097173035
0.049678165 -0.047925357 0.017244412 -0.079090625 -0.06395674 -0.016797865 -0.05520569 -0.03660048
0.07364917 -0.005976971 0.023275955 0.050661653 0.013001074 0.03134345 -0.068760656 0.04994231
-0.07942326 -0.04036965 -0.07072908 0.05934139 -0.008833663 -0.059513226 -0.056814753 0.06390277
-0.022614034 0.05996299 0.037260678 0.01718776 0.07379433 0.032887306 -0.05125037 0.009194309
-0.03830254 0.09951216 0.030863378 0.06569341 -0.032584894 -0.00475897 0.031636838 0.054246403
0.011856071 -0.037639484 -0.0637103 0.0713857 0.058109585 0.021466464 0.0638946 -0.067952886
0.07698153 -0.034712497 0.084034786 -0.018952737 -0.03641077 -0.05444854 0.055164702 -0.060941007
-0.0054343985 -0.006221242 0.038153294 0.05042866 0.060271483 0.05214261 0.06476143 -0.07551431
0.0099403 -0.032071173 -0.08847358 -0.00090509554 -0.0019933747 -0.0622394 -0.03352219 0.046223436
0.021566711 -0.0127250515 -0.05616688 0.03466445 0.06350684 -0.053180814 -0.06824706 -0.09686408
-0.10542633 -0.02378927 -0.06518895 0.046446912 0.15110353 0.027796146 0.032786455 0.07209019
0.12586914 0.06919063 -0.007811761 -0.011276167 -0.013337414 -0.02539571 -0.05525804 -0.15178642
0.0188073 -0.10736859 -0.045801476 -0.048743922 0.037531547 0.025504528 0.009762712 -0.037616234
-0.015412569 -0.00978073 -0.008924756 -0.021916188 0.028296478 0.045892358 0.0266621 0.037999507
-0.033992782 -0.042658217 -0.030111235 0.014858929 0.058600157 -0.02968406 0.044697355 -0.054562453
-0.12234491 -0.04264057 0.074090585 0.022273077 -0.028124437 0.011764641 -0.057953298 0.05932677
-0.02671101 0.052865937 0.015046315 0.08697821 0.048475906 0.01727467 -0.09781114 0.025177278
0.041332927 -0.023118194 -0.051960368 -0.01875708 -0.051401354 -0.03138896 -0.008644142 -0.044159047
-0.15240769 0.007437873 -0.03462643 0.0193569 0.10125497 -0.013900027 -0.028347537 -0.03735432
0.028755363 0.036342036 -0.021604124 -0.042055715 -0.030110436 -0.029286528 0.08058028 -0.019150162
-0.070519015 0.027108025 -0.058708843 0.05822925 -0.00305957 -0.06620071 0.068256415 0.00043335784
-0.0626305 0.014814673 0.01537349 -0.011974676 -0.011610366 0.037900705 0.00011570289 -0.10168743
-0.022480486 -0.021151105 0.008988407 0.058966093 -0.010787811 -0.021142308 -0.068071 -0.00366454
-0.08671437 0.06286532 -0.028866936 0.08590395 0.061920557 0.0048933546 0.057645693 -0.066946566
0.09259632 -0.02699795 0.019553056 0.025804065 -0.038794097 0.06306338 0.004039964 -0.035014708
0.017910585 0.0023441855 -0.062112723 0.06627782 0.068858996 0.051000036 0.014605265 -0.028381856
-0.07886574 0.015533601 0.06500061 -0.1211449 0.0817029 0.00864773 0.043118928 0.04360117
00000000: bd24 b9bb a283 01bd 1013 fdbc 35b6 7fbc
00000010: dafa 2bbd 9c2d cd3c 9ab6 aabd ae14 b5bd
00000020: b962 fcbc f4dc 313c 9b29 bb39 f2e7 82bd
00000030: 116d b43d f7bf 2a3d d485 993b 2b0e fbbd
00000040: e37c f0bd 9edc b2bc 697a 19bd 806b 283d
00000050: 672e ac3c ff65 e53c dbef 233d ae29 a63c
00000060: 2280 1abd 89e6 b6bd c15f 423d ffce 37bd
00000070: 8f3b f1bd 1e8d 453c 86a6 f53d 3683 803d
00000080: 6149 503d aef3 3c3d fc48 37bc e109 803d
00000090: 420d 9ebc a068 cc3d 1510 19bc a802 c7bd
000000a0: 557b 4b3d 614d 44bd 2744 8d3c 44fa a1bd
000000b0: c0fb 82bd ad9b 89bc 5d1f 62bd 63ea 15bd
000000c0: 60d5 963d 77da c3bb 37ad be3c 9882 4f3d
000000d0: 7502 553c fd61 003d 63d2 8cbd 4f90 4c3d
000000e0: aaa8 a2bd a55a 25bd 68da 90bd f50f 733d
000000f0: 11bb 10bc 24c4 73bd 96b6 68bd 75df 823d
00000100: 1141 b9bc c19b 753d a79e 183d 58cd 8c3c
00000110: 7b21 973d d7b4 063d e8eb 51bd baa3 163c
00000120: 20e3 1cbd 08cd cb3d 32d5 fc3c 448a 863d
00000130: bd77 05bd 22f1 9bbb a195 013d 7a31 5e3d
00000140: f73f 423c dc2b 1abd 8c7a 82bd aa32 923d
00000150: 5104 6e3d 70da af3c 2cdb 823d e22a 8bbd
00000160: 7ea8 9d3d b12e 0ebd 6e1a ac3d c542 9bbc
00000170: 7623 15bd 6f05 5fbd 62f4 613d 479d 79bd
00000180: 0a13 b2bb 8fdb cbbb a146 1c3d 488e 4e3d
00000190: 3bdf 763d 7d93 553d a4a1 843d 3fa7 9abd
000001a0: a4dc 223c 105d 03bd a331 b5bd ef43 6dba
000001b0: 47a3 02bb beee 7ebd 904e 09bd c954 3d3d
000001c0: acac b03c bc7c 50bc 3e0f 66bd 4ffc 0d3d
000001d0: e00f 823d 20d4 59bd 1dc5 8bbd ad60 c6bd
000001e0: c2e9 d7bd b7e1 c2bc c981 85bd 1e3f 3e3d
000001f0: e2ba 1a3e beb4 e33c 174b 063d 06a4 933d
00000200: d7e3 003e d1b3 8d3d cdf9 ffbb acbf 38bc
00000210: 2b85 5abc aa0a d0bc 4156 62bd e66d 1bbe
00000220: c411 9a3c 10e4 dbbd 549a 3bbd b5a7 47bd
00000230: aeba 193d dfee d03c c8f3 1f3c 7b13 1abd
00000240: 0085 7cbc 5b3f 20bc 2439 12bc 9489 b3bc
00000250: 04ce e73c a0f9 3b3d 7a6a da3c 5fa5 1b3d
00000260: 043c 0bbd 62ba 2ebd d6ab f6bc de72 733c
00000270: b806 703d fc2b f3bc 9314 373d e17c 5fbd
00000280: f88f fabd e1a7 2ebd cebc 973d 0776 b63c
00000290: 3865 e6bc 7bc0 403c 7060 6dbd a100 733d
000002a0: 0cd1 dabc f489 583d d284 763c a221 b23d
000002b0: ac8e 463d 9c83 8d3c 3551 c8bd 9440 ce3c
000002c0: b74c 293d 5e62 bdbc 65d4 54bd 73a8 99bc
000002d0: 3a8a 52bd b691 00bd 29a0 0dbc 1ee0 34bd
000002e0: c310 1cbe 67b9 f33b 72d4 0dbd 5d92 9e3c
000002f0: c45e cf3d f0bc 63bc 1839 e8bc d800 19bd
00000300: 5e90 eb3c 63db 143d 22fb b0bc 9d42 2cbd
00000310: 29aa f6bc 4dea efbc 4607 a53d cde0 9cbc
00000320: 466c 90bd a611 de3c af78 70bd cb81 6e3d
00000330: 1183 48bb 3d94 87bd 05ca 8b3d 4e34 e339
00000340: 6b44 80bd 3eb9 723c 17e1 7b3c 6e31 44bc
00000350: 6839 3ebc c53d 1b3d 84a5 f238 8041 d0bd
00000360: ff28 b8bc 1545 adbc 1d44 133c 6e86 713d
00000370: 5cbf 30bc a232 adbc cf68 8bbd c728 70bb
00000380: 4e97 b1bd 88bf 803d 5a7a ecbc 69ee af3d
00000390: 69a0 7d3d 6f58 a03b e41d 6c3d 481b 89bd
000003a0: 24a3 bd3d ce2a ddbc bb2d a03c 0c63 d33c
000003b0: 8fe6 1ebd 6027 813d ad61 843b 956b 0fbd
000003c0: 38b9 923c e8a0 193b e969 7ebd aabc 873d
000003d0: f205 8d3d 6ae5 503d ec4a 6f3c 1181 e8bc
000003e0: 5c84 a1bd a580 7e3c 0a1f 853d d11a f8bd
000003f0: da53 a73d 35af 0d3c 799d 303d 2497 323d

sequential_2/dense_1/BiasAdd/ReadVariableOp f4 [3]
-0.013837997 0.037890155 -0.027141247
00000000: c4b8 62bc b532 1b3d 5257 debc

sequential_2/dense/BiasAdd/ReadVariableOp f4 [64]
-0.0066036875 0.0416699 -0.020557683 -0.011164265 -0.0047631264 0.02156557 -0.0043065995 0.0009822447
-0.036030047 -0.032561194 -0.010466461 -0.027217634 -0.026064986 0.04903167 -0.0060831225 0.031696383
-0.04112168 0.07234032 0.03383259 -0.024384849 -0.022267299 0.03804848 0.0556004 -0.010763066
0.0013886788 -0.03872637 -0.03974159 0.03090246 -0.024517404 -0.016284412 0.00016958691 -0.038122665
-0.020878017 -0.00893042 -0.009946739 -0.028720876 -0.030550815 0.03420227 0.004407226 -0.024535015
-0.012309609 -0.023216814 -0.016225426 0.0005956147 -0.048577253 -0.046100684 0.04935438 0.04295475
-0.026529305 0.05260127 -0.0112834545 -0.01801336 0.009517857 0.046926767 0.043247074 -0.011199909
-0.036550302 0.03717233 0.04038691 -0.026674017 -0.021223517 -0.002396904 -0.007782379 -0.02374835
00000000: bf63 d8bb 0fae 2a3d 9668 a8bc 52ea 36bc
00000010: 0014 9cbb 47aa b03c 601e 8dbb aabe 803a
00000020: 3e94 13bd e35e 05bd 857b 2bbc 84f7 debc
00000030: 3d86 d5bc 6fd5 483d ee54 c7bb 11d4 013d
00000040: 356f 28bd 2927 943d 0b94 0a3d bcc2 c7bc
00000050: e969 b6bc b9d8 1b3d 3fbd 633d 9257 30bc
00000060: 5404 b63a 8b9f 1ebd 14c8 22bd 2827 fd3c
00000070: b9d8 c8bc e366 85bc 24d3 3139 8326 1cbd
00000080: 6008 abbc e550 12bc a6f7 22bc 0b48 ebbc
00000090: b445 fabc ae17 0c3d 7e6a 903b a8fd c8bc
000000a0: 3eae 49bc 3031 bebc 2feb 84bc 0723 1c3a
000000b0: f1f8 46bd 12d4 3cbd d227 4a3d 52f1 2f3d
000000c0: fc53 d9bc 6e74 573d 3dde 38bc c190 93bc
000000d0: c9f0 1b3c 4836 403d d823 313d d37f 37bc
000000e0: c5b5 15bd 0342 183d bf6c 253d 7883 dabc
000000f0: f1dc adbc 6015 1dbb 5403 ffbb e68b c2bc
